ChatBot/data.pth (torch, 4991 bytes, 6 tensors)

l1.weight f4 [8, 49]
0.51449955 0.47769788 0.44505763 0.18757574 -0.8911501 -0.83081466 -0.21590523 -0.057077415
0.23083746 -0.2870426 -0.30785254 -0.08852264 0.9752649 0.7672191 0.29812744 -0.13979252
-0.25177094 -0.5288273 0.22364494 -0.5520687 -0.33995244 -0.23619808 -0.07932674 -0.083712526
0.20349428 -0.08853141 -0.08115665 -0.13294873 0.2973857 0.025386002 0.5231564 0.3538481
0.81631255 1.1715329 0.51383793 -0.35813597 0.21584134 0.5098279 -0.015018987 0.20880942
0.25686488 0.9138244 0.32348546 -0.043622967 0.40071192 0.7833458 0.28275126 0.50463396
0.32133213 -0.2989923 0.07251335 -0.15373175 0.26547885 -0.31484744 -0.38695714 -0.15305515
0.763659 -0.18264173 -0.65921396 0.33363068 -0.11391744 0.7180479 -0.41735846 -0.118484735
0.46777552 -0.6933996 0.4593655 -0.1434717 0.49842194 0.50974905 -0.48886827 1.2497063
0.23769899 0.47277817 -0.33962768 -0.044464536 -0.13059512 -0.06990602 -0.2907427 0.37783164
0.31768084 0.45876926 0.0769414 0.30793688 1.3522449 -0.66916496 0.2188502 -0.24150948
-0.14891899 -0.1405193 -0.6983623 -0.2557872 0.1340366 -0.38935152 0.36276335 0.2706774
-0.017735342 -0.32635957 -0.27431342 0.5244047 -0.05202288 0.23009005 -0.18338071 -0.34187502
0.5434012 -0.03513504 0.44017795 -0.40447643 0.25146574 0.23100203 0.24317224 -0.37341803
0.31952772 0.3536682 -0.40532383 0.52889866 0.15836762 0.4516973 0.48821196 -0.10246611
-0.4053098 0.20628032 0.8737525 0.14451833 0.1551709 -0.2358377 -0.2519064 0.35582644
0.71997124 0.69167536 0.050965734 -0.25244194 -0.40561903 -0.40534863 0.9910516 -0.22777726
-0.256906 0.42990983 0.39022756 -0.064808846 0.1566011 0.20690817 -0.30648327 0.027046138
-0.17964698 -0.14235991 0.15392952 0.49611396 0.5443124 0.011336759 0.29320106 -0.07495756
-0.16175617 0.27251503 -0.15709485 0.44371128 0.7402193 0.21193887 0.32438377 -0.31802014
-0.12827224 0.35234246 0.18958794 0.71282953 0.23981799 0.46085605 0.21365972 0.10882358
-0.54676306 -0.7613052 0.11835209 -0.031047633 0.5681004 0.41606322 0.3110462 0.15654355
0.58860815 -0.20315497 0.10423378 -0.42475387 -0.29692107 -0.118383616 -0.76110315 0.74410117
-0.011038759 0.29612166 0.35000822 0.67429787 0.9226925 0.58781236 0.07243367 0.112050556
-0.528413 -0.020077832 -0.110244535 0.49635655 -0.36936703 0.29152498 -0.03847961 0.51915324
0.7555653 0.8401156 0.5655078 0.37270403 -0.32952112 -0.71086985 0.53101903 0.5425226
-0.71083313 -0.0983353 0.33725834 0.47401267 -0.71076673 0.6994192 -0.2252065 0.76720774
0.9515219 0.50168574 0.14379501 0.51141196 0.83216494 0.5785722 0.51786387 -0.2866699
-0.12411169 0.63893735 0.56810606 0.40038833 -0.6753137 -0.7109039 -0.12824893 0.6323732
0.06483833 0.010898727 -0.3859199 0.5246411 0.5761662 -0.71091294 -0.11617035 0.43634942
-0.15637146 -0.6612247 -0.051997304 0.09554665 0.070816346 0.5970284 0.34114426 -0.2628873
-0.19940373 0.79951787 0.7003191 -0.59860355 0.27000698 -0.47335154 0.028018994 -0.24380283
00000000: 3eb6 033f d194 f43e 98de e33e db13 403e
00000010: 6a22 64bf 45b0 54bf 4316 5dbe 02ca 69bd
00000020: a860 6c3e 3ff7 92be d99e 9dbe 5c4b b5bd
00000030: f6aa 793f 7968 443f 29a4 983e c525 0fbe
00000040: 1fe8 80be 3a61 07bf 2e03 653e 6054 0dbf
00000050: 3f0e aebe e9dd 71be 0f76 a2bd 7971 abbd
00000060: ce60 503e f54f b5bd 7535 a6bd b623 08be
00000070: f042 983e 4ef6 cf3c 94ed 053f 942b b53e
00000080: dcf9 503f caf4 953f e28a 033f 995d b7be
00000090: 8305 5d3e 1584 023f 3212 76bc 23d2 553e
000000a0: cb83 833e 65f0 693f e39f a53e ffad 32bd
000000b0: 1d2a cd3e 5a89 483f c6c4 903e b12f 013f
000000c0: a585 a43e 8515 99be e181 943d db6b 1dbe
000000d0: d8ec 873e af33 a1be 3f1f c6be 7dba 1cbe
000000e0: 287f 433f 6f06 3bbe 3fc2 28bf a4d1 aa3e
000000f0: 8c4d e9bd fdd1 373f 02b0 d5be 20a8 f2bd
00000100: 4680 ef3e a382 31bf f431 eb3e 3fea 12be
00000110: 2931 ff3e ea7e 023f f14c fabe 60f6 9f3f
00000120: 5d67 733e fb0f f23e aee3 adbe 7220 36bd
00000130: baba 05be e32a 8fbd 3adc 94be 2673 c13e
00000140: 10a7 a23e cee3 ea3e 7493 9d3d e7a9 9d3e
00000150: 5c16 ad3f 654e 2bbf 441a 603e 434e 77be
00000160: 387e 18be 4be4 0fbe dfc7 32bf 8af6 82be
00000170: e440 093e 1559 c7be 1ebc b93e 3a96 8a3e
00000180: b549 91bc 9a18 a7be cf72 8cbe 633f 063f
00000190: f215 55bd ba9c 6b3e 27c8 3bbe 3e0a afbe
000001a0: 571c 0b3f c2e9 0fbd 015f e13e 8917 cfbe
000001b0: 1ec0 803e cc8b 6c3e 2502 793e a630 bfbe
000001c0: 2399 a33e 0014 b53e 9b86 cfbe e765 073f
000001d0: 1f2b 223e de44 e73e ebf6 f93e c0d9 d1bd
000001e0: c484 cfbe 263b 533e 3eae 5f3f 9dfc 133e
000001f0: 1fe5 1e3e 707f 71be e0f9 80be e22e b63e
00000200: 0950 383f a311 313f 72c1 503d 1240 81be
00000210: 4cad cfbe db89 cfbe 8fb5 7d3f 713e 69be
00000220: 2f89 83be 241d dc3e e8cb c73e 80ba 84bd
00000230: 0a5c 203e bcdf 533e 60eb 9cbe dd8f dd3c
00000240: 61f5 37be ccc6 11be b39f 1d3e a602 fe3e
00000250: 0f58 0b3f d0bd 393c 731e 963e 5983 99bd
00000260: 69a3 25be 1787 8b3e 79dd 20be 202e e33e
00000270: 037f 3d3f 8106 593e a115 a63e 89d3 a2be
00000280: cc59 03be 3b66 b43e 5723 423e ff7b 363f
00000290: d992 753e 53f5 eb3e 9dc9 5a3e e6de de3d
000002a0: aaf8 0bbf e6e4 42bf 9562 f23d 9b57 febc
000002b0: 076f 113f 3d06 d53e 7341 9f3e f44c 203e
000002c0: 06af 163f db07 50be 8578 d53d 5779 d9be
000002d0: 0a06 98be 1c73 f2bd a8d7 42bf 6a7d 3e3f
000002e0: e9db 34bc 429d 973e 4734 b33e c99e 2c3f
000002f0: 9335 6c3f df7a 163f 1b58 943d c37a e53d
00000300: 1346 07bf 447a a4bc e3c7 e1bd 7222 fe3e
00000310: ad1d bdbe c342 953e cc9c 1dbd 3ae7 043f
00000320: ba6c 413f d111 573f 1fc5 103f 10d3 be3e
00000330: feb6 a8be 91fb 35bf ddf0 073f c3e2 0a3f
00000340: 29f9 35bf 0564 c9bd 20ad ac3e cab1 f23e
00000350: cff4 35bf 230d 333f 889c 66be ba67 443f
00000360: f096 733f 7a6e 003f 003f 133e e5eb 023f
00000370: c308 553f 4f1d 143f ba92 043f 66c6 92be
00000380: 452e febd 6691 233f 666f 113f b3ff cc3e
00000390: 5ce1 2cbf ccfd 35bf b053 03be 36e3 213f
000003a0: f5c9 843d 9390 323c 4b97 c5be e14e 063f
000003b0: a17f 133f 64fe 35bf b8ea edbd 3169 df3e
000003c0: d71f 20be 0646 29bf 20fb 54bd f6ad c33d
000003d0: 2908 913d dad6 183f 76aa ae3e 2a99 86be
000003e0: 7e30 4cbe 34ad 4c3f 1d48 333f 153e 19bf
000003f0: 5b3e 8a3e 225b f2be 1788 e53c 73a7 79be

l1.bias f4 [8]
0.9928615 0.6982712 0.40531102 0.7612304 0.7108505 0.71193457 0.6588379 0.7576969
00000000: 2c2c 7e3f e7c1 323f ed84 cf3e ffdf 423f
00000010: 4cfa 353f 5841 363f 9aa9 283f 6df8 413f

l2.weight f4 [8, 8]
0.26317677 -1.412315 -0.116226025 1.0399686 0.45666477 1.3868989 -0.0031513283 1.3160782
0.7372186 0.082185194 1.188691 0.3078795 -0.41216674 1.3151675 -0.39051098 -0.9444251
0.5878362 0.03716126 1.2869347 0.9191757 0.9085722 -1.5864345 0.03401522 -0.13816704
-0.55623984 0.5604646 0.17670238 0.53133863 1.3564703 0.9191463 1.4347043 1.0124072
1.6324594 0.482999 -1.268682 0.1639201 -1.4245067 0.3984214 0.21536763 0.4315193
0.93615335 -0.24576718 0.7497034 1.024511 0.42340118 -0.5071436 -1.4596497 0.22054385
1.4378774 -0.13910855 1.3195457 0.39505634 -0.9960704 0.95673704 0.03868474 -1.476842
0.5442201 1.7918729 0.2862457 -1.301994 1.8828874 1.1141121 0.2436234 -0.25412843
00000000: 1bbf 863e bdc6 b4bf e907 eebd b11d 853f
00000010: f7cf e93e e785 b13f 8486 4ebb 4075 a83f
00000020: 5cba 3c3f b650 a83d 0727 983f 62a2 9d3e
00000030: 8507 d3be 6957 a83f 0ef1 c7be d8c5 71bf
00000040: 6f7c 163f 6836 183d 47ba a43f 194f 6b3f
00000050: 3098 683f 4910 cbbf 8b53 0b3d a97b 0dbe
00000060: bc65 0ebf 9c7a 0f3f 78f1 343e cf05 083f
00000070: d2a0 ad3f 2c4d 6b3f 64a4 b73f 8f96 813f
00000080: 6ef4 d03f a54b f73e 2c64 a2bf acda 273e
00000090: 3c56 b6bf e4fd cb3e 5589 5c3e 19f0 dc3e
000000a0: bfa7 6f3f 64aa 7bbe 90ec 3f3f 2d23 833f
000000b0: 0ac8 d83e 2ad4 01bf cdd5 babf 3fd6 613e
000000c0: 5e0c b83f 7972 0ebe e0e6 a83f d344 ca3e
000000d0: 78fe 7ebf b8ec 743f e473 1e3d 2909 bdbf
000000e0: 0252 0b3f 175c e53f cc8e 923e bda7 a6bf
000000f0: 7402 f13f 3a9b 8e3f 6a78 793e 1f1d 82be

l2.bias f4 [8]
-0.004516334 0.010422181 0.25700453 0.4221102 1.0591851 0.7151806 0.17680828 0.66602963
00000000: c1fd 93bb ccc1 2a3c 1996 833e d41e d83e
00000010: 6193 873f 1316 373f 3b0d 353e eb80 2a3f

l3.weight f4 [11, 8]
-1.9610225 -0.54432833 -1.4318964 0.38462067 -0.027153332 -1.5490301 -1.1971705 1.0144883
0.6098958 -0.7945506 -2.068495 0.64065367 -1.2284752 -1.4410844 -0.6667118 0.18518281
-1.0849932 0.4246048 -2.0189404 -0.079818115 0.37810272 -1.4138063 0.60924965 0.1455206
0.64999616 0.018097067 -0.57804036 -0.14454687 -1.1278164 0.08548796 -0.58549637 -0.4823515
0.69275314 -1.1952463 -1.0256737 0.5403319 0.64628863 -0.4621447 -1.1856222 -1.8271521
-1.1846149 -1.257521 0.8634472 0.6672195 -1.2802426 -0.4354859 -1.1124971 0.17281637
-0.710042 0.39940968 -0.6278518 -0.3363008 -1.4023201 -0.2304242 0.3486154 0.36502454
-1.6226066 -0.087123446 -0.21027763 -1.9962348 0.8824351 0.41412985 0.5975229 -0.31317028
-0.4205444 -1.176769 -0.17503625 -0.39364547 0.82024574 0.6817251 -1.688649 0.030829238
-0.5497261 0.2066491 0.63544446 -1.0383562 -1.0700734 0.7698716 0.47812378 -1.0038358
0.43748227 0.5581523 -1.2056279 -0.89823437 0.18408643 0.098568775 0.33749598 -0.9559649
00000000: c902 fbbf 1a59 0bbf 6248 b7bf 00ed c43e
00000010: aa70 debc 9e46 c6bf e23c 99bf c1da 813f
00000020: 2222 1c3f ab67 4bbf 3962 04c0 e101 243f
00000030: ad3e 9dbf 7475 b8bf a0ad 2abf 90a0 3d3e
00000040: 0fe1 8abf cd65 d93e 5236 01c0 ae77 a3bd
00000050: ae96 c13e 9bf7 b4bf c9f7 1b3f 5a03 153e
00000060: 2666 263f 4d40 943c 74fa 13bf 1804 14be
00000070: 4a5c 90bf 5014 af3d 17e3 15bf c7f6 f6be
00000080: 4558 313f d5fd 98bf 4749 83bf 3153 0a3f
00000090: 2c73 253f 3b9e ecbe 78c2 97bf 1fe0 e9bf
000000a0: 76a1 97bf 73f6 a0bf e00a 5d3f e6ce 2a3f
000000b0: fdde a3bf 02f8 debe 4e66 8ebf c6f6 303e
000000c0: 50c5 35bf 6d7f cc3e e5ba 20bf 9e2f acbe
000000d0: 3a7f b3bf 52f4 6bbe b87d b23e 7fe4 ba3e
000000e0: 93b1 cfbf c76d b2bd 0553 57be 9f84 ffbf
000000f0: 44e7 613f d408 d43e 43f7 183f db57 a0be
00000100: 9851 d7be 5ea0 96bf b43c 33be e68b c9be
00000110: a0fb 513f 8985 2e3f a725 d8bf 998d fc3c
00000120: daba 0cbf d29b 533e 7dac 223f dbe8 84bf
00000130: 2af8 88bf 4e16 453f a4cc f43e b17d 80bf
00000140: adfd df3e 12e3 0e3f 0452 9abf b0f2 65bf
00000150: 2781 3c3e 6dde c93d 46cc ac3e 1eba 74bf

l3.bias f4 [11]
0.039163765 -0.34040704 0.06500865 -0.6580161 -0.11085112 0.058417004 -0.059799667 0.18360554
0.059948523 -0.1874375 -0.30970722
00000000: 2f6a 203d d549 aebe 4123 853d be73 28bf
00000010: e905 e3bd ab46 6f3d 7ff0 74bd 1703 3c3e
00000020: 958c 753d 9eef 3fbe f291 9ebe
